…
s', 'classifier.weight']\nYou should probably TRAIN this model on a down-stream task to be able to use it for predictions and inference.\n/mnt/c/#work/ecovadis/ecovadis/lib/python3.10/site-packages/transformers/optimization.py:521: FutureWarning: This implementation of AdamW is deprecated and will be removed in a future version. Use the PyTorch implementation torch.optim.AdamW instead, or set `no_deprecation_warning=True` to disable this warning\n  warnings.warn(\n</pre> Out[9]: <pre>BertForSequenceClassification(\n  (bert): BertModel(\n    (embeddings): BertEmbeddings(\n      (word_embeddings): Embedding(28996, 768, padding_idx=0)\n      (position_embeddings): Embedding(512, 768)\n      (token_type_embeddings): Embedding(2, 768)\n      (LayerNorm): LayerNorm((768,), eps=1e-12, elementwise_affine=True)\n      (dropout): Dropout(p=0.4, inplace=False)\n    )\n    (encoder): BertEncoder(\n      (layer): ModuleList(\n        (0-11): 12 x BertLayer(\n          (attention): BertAttention(\n            (self): BertSelfAttention(\n              (query): Linear(in_features=768, out_features=768, bias=True)\n              (key): Linear(in_features=768, out_features=768, bias=True)\n              (value): Linear(in_features=768, out_features=768, bias=True)\n              (dropout): Dropout(p=0.1, inplace=False)\n            )\n            (output): BertSelfOutput(\n              (dense): Linear(in_features=768, out_features=768, bias=True)\n              (LayerNorm): LayerNorm((768,), eps=1e-12, elementwise_affine=True)\n              (dropout): Dropout(p=0.4, inplace=False)\n            )\n          )\n          (intermediate): BertIntermediate(\n            (dense): Linear(in_features=768, out_features=3072, bias=True)\n            (intermediate_act_fn): GELUActivation()\n          )\n          (output): BertOutput(\n            (dense): Linear(in_features=3072, out_features=768, bias=True)\n            (LayerNorm): LayerNorm((768,), eps=1e-12, elementwise_affine=True)\n            (dropout): Dropout(p=0.4, inplace=False)\n          )\n        )\n      )\n    )\n    (pooler): BertPooler(\n      (dense): Linear(in_features=768, out_features=768, bias=True)\n      (activation): Tanh()\n    )\n  )\n  (dropout): Dropout(p=0.4, inplace=False)\n  (classifier): Linear(in_features=768, out_features=18, bias=True)\n)</pre> In\u00a0[10]: Copied! <pre>trained_model = surname_classification.train_model(\n    model,\n    train_dataloader,\n    val_dataloader,\n    optimizer,\n    scheduler,\n    device,\n    num_epochs=num_epochs,\n)\n</pre> trained_model = surname_classification.train_model(     model,     train_dataloader,     val_dataloader,     optimizer,     sch
…
